MergedModelBERT/Merged_Models_White_Nations_safetensors/topic_embeddings.safetensors (safetensors, 241240 bytes, 1 tensors)

topic_embeddings f4 [157, 384]
0	0xbd76f0fc	-0.060288414
1	0x3cc0f14e	0.023552563
2	0xbcf42df2	-0.029807065
3	0x3c1da941	0.009622873
4	0xbbce5e6d	-0.0062978775
5	0xbcf408bd	-0.029789323
6	0x3d8fcd8e	0.07021628
7	0x3d07be03	0.033140194
8	0x3c3b30c5	0.011425202
9	0xbc25730b	-0.010098229
10	0xbaa8cb9c	-0.0012878063
11	0xbcf027e7	-0.029315902
12	0xbc820e4c	-0.015875958
13	0x3c9cfc48	0.019163266
14	0xbc83fc6c	-0.016111575
15	0x3c83c445	0.0160848
16	0xbbc4d68b	-0.006007021
17	0xbb459dc0	-0.003015384
18	0xbd835847	-0.06413322
19	0xbc139c0d	-0.009009373
20	0xbd8d6b95	-0.06905285
21	0x3c95741d	0.018243844
22	0xbc406ac6	-0.011744207
23	0x3c09568f	0.008382454
24	0xbcf62120	-0.030045092
25	0x3c9a1f15	0.01881365
26	0xbc32a58f	-0.01090373
27	0x3d2dbd11	0.042416636
28	0x3cf2a914	0.029621638
29	0xbd9db3e0	-0.07700324
30	0xbc9d52d8	-0.019204542
31	0x3ccebd66	0.025236797
32	0x3d1eddd4	0.03878577
33	0x3c37e2fb	0.01122355
34	0xbb8b4e3d	-0.00425127
35	0xbc082b38	-0.008311085
36	0xbbfd34d9	-0.007727247
37	0x3beadf43	0.007167728
38	0x3bd450f4	0.006479377
39	0x3b645ab8	0.0034844112
40	0x3cb1fbe1	0.02172655
41	0xbd2c8c4a	-0.042125978
42	0xbc268463	-0.010163399
43	0x3c567b6f	0.013090952
44	0x3c92541c	0.017862372
45	0x3ac7c197	0.0015240189
46	0x3c42e44b	0.01189525
47	0x3bb9e9db	0.0056736297
48	0x3ce61ffb	0.028091421
49	0x3cb62823	0.022235936
50	0xbd631913	-0.055443835
51	0x388f5718	6.834994e-05
52	0xbc90fc48	-0.017698422
53	0xbc375beb	-0.011191349
54	0x3b92bf32	0.0044783587
55	0x3cb3054e	0.021853115
56	0xbd341dd8	-0.043973774
57	0x3c1bab49	0.009501287
58	0x3cb155ad	0.021647299
59	0xbbbcd7f4	-0.0057630483
60	0x3d1924f3	0.037388753
61	0xbbfd72c6	-0.0077346293
62	0xbdb65a72	-0.0890397
63	0x3d1e04fd	0.038578976
64	0x3d0dab81	0.034587387
65	0x3bb2df25	0.00545873
66	0xbc12a3b8	-0.008950166
67	0x3cdc07e8	0.026859239
68	0xbd1538c9	-0.036431108
69	0xbd192619	-0.03738985
70	0x3c91735c	0.017755203
71	0x3c31cc8e	0.010851992
72	0xbc3d8661	-0.011567683
73	0xbcbb948e	-0.022897985
74	0x3d1e64e8	0.03867045
75	0x3a5ac31e	0.0008345115
76	0x3d49c919	0.049264047
77	0xbd38bc1b	-0.045101266
78	0x3ca4c2ed	0.02011248
79	0xba9b754b	-0.0011860518
80	0xbd1e87b8	-0.03870365
81	0x3d19bc27	0.03753295
82	0xbd0f5d50	-0.0350011
83	0x3c073a4a	0.008253643
84	0xbc94965f	-0.018138109
85	0xbc6f999f	-0.0146240285
86	0x3cb8aad3	0.022542393
87	0x3cd32a9a	0.02577715
88	0xbcc26ad0	-0.023732573
89	0x3c7de04b	0.01549537
90	0xbb414d3c	-0.0029495498
91	0x3c88a770	0.016681403
92	0x3d168f5d	0.036757816
93	0xbb73f5d7	-0.003722539
94	0xbd1c974e	-0.038230233
95	0x3cbe9a84	0.023267038
96	0x3c8bc025	0.017059395
97	0x3a878d24	0.0010341746
98	0xbd0354b3	-0.032063197
99	0x3e80a97d	0.2512931
100	0x3c9a54fc	0.018839352
101	0x3cb134d6	0.02163164
102	0xbcfe17bf	-0.031017182
103	0x3a8a7f7c	0.0010566558
104	0xbcfc6ad6	-0.030812662
105	0xbc9108e8	-0.017704442
106	0xbd25d027	-0.040481713
107	0x3d29e5bd	0.04147886
108	0x3aa637e5	0.0012681453
109	0xbbc33bcc	-0.005958056
110	0xbd719f2f	-0.0589897
111	0x3b98bacc	0.00466094
112	0xbce6dd25	-0.028181622
113	0xbada6c86	-0.0016664423
114	0xbb444f6b	-0.0029954563
115	0xbab12074	-0.00135137
116	0xbcc00a10	-0.023442298
117	0x3c31949d	0.010838655
118	0x3cdedaf5	0.027204016
119	0xbd1eb5d8	-0.03874764
120	0x3ca5d31e	0.02024227
121	0x3cc527ac	0.024066769
122	0xbbbf4d5e	-0.0058380803
123	0x3aa41e29	0.0012521195
124	0xbd14b1c7	-0.036302354
125	0xbd3333b0	-0.043750465
126	0x3c86d757	0.016460104
127	0x898804e5	-3.2745412e-33
128	0x3c61a320	0.013771802
129	0xbc0215c9	-0.007939764
130	0x3bbf08fd	0.005829929
131	0x3ac6670d	0.0015136913
132	0x3cedfd6e	0.029051509
133	0x3c9c36eb	0.019069156
134	0x3caeef3c	0.02135431
135	0xbc58e4cc	-0.013238143
136	0xbd1542c7	-0.036440637
137	0x3d23b5be	0.039968245
138	0xbcdd1b89	-0.026990669
139	0xbc1aa46a	-0.009438613
140	0xbceb7d63	-0.028746312
141	0xbb2ecce2	-0.0026672413
142	0x3d4f7178	0.05064532
143	0x3bb65db9	0.005565372
144	0x3c84fa76	0.01623271
145	0x3cccc5a6	0.02499659
146	0xbc75064e	-0.014955116
147	0xbc8b4f99	-0.017005729
148	0xbcbbee83	-0.02294088
149	0x3c589aca	0.013220498
150	0xbb43bf1a	-0.0029868544
151	0x3ce8ea9b	0.028432181
152	0xbbbbe0fc	-0.0057336073
153	0xbca51789	-0.020152824
154	0xbbdfab0c	-0.0068258103
155	0xbd2201ec	-0.039552614
156	0x3cfa9163	0.030586904
157	0x3c8a96c4	0.016917594
158	0xbb469369	-0.0030300266
159	0x3c522cc6	0.012828058
160	0xbc112aba	-0.008860284
161	0x3b98f358	0.0046676807
162	0x3bad5880	0.005290091
163	0xbc761c5f	-0.015021413
164	0x38f242be	0.00011551891
165	0xbd15c516	-0.03656491
166	0x3bf98385	0.0076145553
167	0xbbf41c1c	-0.00744964
168	0xbcd06a24	-0.025441237
169	0x3c939a01	0.01801777
170	0xbd3cc07a	-0.046081997
171	0x3c376bb9	0.011195117
172	0xbc1d3167	-0.009594298
173	0x3cec735e	0.028863605
174	0x3ce52825	0.027973244
175	0x3b3f97e1	0.0029234814
176	0xbadea09a	-0.0016985119
177	0x3c863c44	0.016386159
178	0xbc47f1c4	-0.0122036375
179	0x3bbb1480	0.005709231
180	0xbd41d238	-0.04731962
181	0xbb7fa040	-0.0039005429
182	0xbc99be9d	-0.01876765
183	0xbcd00fdc	-0.025398187
184	0x3ca8e51a	0.020617057
185	0xbc3aab9c	-0.011393454
186	0xbb4b53dc	-0.0031025326
187	0x3c4e5530	0.0125935525
188	0x3d2b8267	0.04187241
189	0x3d35f9ab	0.044427555
190	0x3c150c02	0.009097101
191	0xbad04a31	-0.0015891251
192	0xbcd108c2	-0.025516871
193	0xbd094e23	-0.033521783
194	0xbbcaafe1	-0.006185517
195	0xbcc5902d	-0.0241166
196	0x3c1fc84e	0.009752346
197	0xbc3fa61a	-0.011697317
198	0xbd1cdc0c	-0.03829579
199	0x3c2780ef	0.010223611
200	0x3d8561c7	0.0651279
201	0xba173e20	-0.000576945
202	0xbba8734a	-0.0051406967
203	0xbcd4c9ca	-0.025975127
204	0x3c15d87f	0.009145855
205	0x3cf81054	0.030281223
206	0x3c249c88	0.010047086
207	0xba6acc56	-0.000895684
208	0xbcfa342e	-0.03054246
209	0xbcb56aba	-0.022145618
210	0x3c11a3df	0.008889168
211	0x3d1331af	0.035936054
212	0x3d259d01	0.040432934
213	0x3bcbc9d2	0.006219127
214	0xbc303931	-0.010755823
215	0xbd77054c	-0.060307786
216	0x3c9b0321	0.01892239
217	0xbbcc96d0	-0.006243564
218	0xbd840ef6	-0.06448166
219	0x3b940d38	0.0045181774
220	0x3cb0ffc1	0.021606328
221	0x3c850a3c	0.016240232
222	0xbbf0a4da	-0.0073438706
223	0x09621155	2.721191e-33
224	0xbceada22	-0.028668467
225	0x3c4f091e	0.012636451
226	0xbcac271e	-0.021014746
227	0x3d67450c	0.056462333
228	0x3cf94169	0.030426698
229	0x3bc6f0a1	0.0060711657
230	0x3ba35bd1	0.0049853106
231	0x3cd7e5b7	0.026354654
232	0x3c8f8ef2	0.017524216
233	0x3d8d1e92	0.068905964
234	0xbac7d6fc	-0.0015246565
235	0xbc604d9e	-0.01369038
236	0x3d4719c9	0.048608575
237	0xbc822609	-0.015887277
238	0x3cd3a936	0.025837522
239	0x3ca320e2	0.01991314
240	0x3d8a2cbd	0.067468144
241	0xbc10443c	-0.008805331
242	0xbc82ee49	-0.015982764
243	0x3c065b18	0.008200429
244	0xbcec8d75	-0.028876046
245	0xbc6f0b93	-0.014590162
246	0xbcd62c65	-0.026144216
247	0x3c263e68	0.010146715
248	0xbcb1a1be	-0.02168357
249	0x3d37a0f4	0.04483123
250	0x3d23a13e	0.039948694
251	0x3cac143b	0.02100574
252	0xbce51d23	-0.027967995
253	0x3c438cbd	0.01193541
254	0x3d3b1b44	0.0456803
255	0xbd1dba85	-0.038507957
