Analyze_files/CombiningAnalysisCompleteDataset/ThreadAnalysis/Models/topic_model_all-MiniLM-L6-v2_150_150n_10dim_raid_safetensors/topic_embeddings.safetensors (safetensors, 41560 bytes, 1 tensors)

topic_embeddings f4 [27, 384]
-0.06455032 0.011292246 -0.014104835 0.011609401 0.0062104724 -0.022432573 0.06058149 0.019739255
0.009930905 0.028827092 0.0041014696 -0.055354204 -0.004349623 -0.014952612 -0.00262112 0.0024016267
-0.04606739 0.004178334 -0.07664372 -0.024794012 -0.06468395 -0.0043451586 -0.02162131 0.026804425
-0.00798129 -0.0043222713 -0.023168609 0.030171528 0.0364698 -0.058937307 0.013647126 0.009860066
0.032194033 0.013112785 -0.0055947294 -0.027972093 -0.009566987 0.0172551 -0.01108768 -0.030116484
-0.007912488 -0.071421534 -0.0029395528 0.01426651 0.009480563 0.017352855 0.015527489 0.010428664
0.022224145 0.048989534 -0.0057308148 -0.023255007 0.009091892 -0.0063651246 0.0044601555 -0.012980547
0.0029949325 0.008433726 -0.0049515544 -0.020627864 0.038003333 -0.011714377 -0.078086935 0.047231298
-0.02067504 -0.0042997375 -0.0137428995 0.03647937 0.00035852683 -0.020703688 -0.04075379 0.024354678
-0.023393301 -0.013906358 0.05241055 -0.001203078 0.025671516 -0.014506457 0.04062957 0.02126092
-0.0026949823 0.003828905 -0.028656855 0.017518276 0.017708289 -0.0013285654 0.035396945 0.006425343
-0.030863043 0.013938517 -0.008077553 0.022933265 0.05733574 0.012546087 -0.052109584 -0.0024250702
0.018128108 0.010962563 -0.029744051 0.2504792 0.014266717 0.032500003 0.022044314 0.015010582
-0.0040263617 -0.00892016 -0.02046313 0.039427657 -0.0015454481 -0.011651902 -0.025529448 0.013690947
-0.0023522957 0.013854658 0.024289161 0.020139653 -0.016544757 0.023395516 0.024562214 -0.0027051247
0.018627308 0.016563987 -0.0034433212 -0.0013689104 -0.031876072 -0.076510765 -0.0014877166 -3.2149627e-33
0.038388915 0.022133144 0.0050648786 0.02113967 -0.006375671 0.040145412 -0.0082228305 0.005325841
-0.04682112 0.063873194 -0.0031675387 0.041178804 -0.019788856 0.0055995244 0.08116091 -0.008871459
0.004101783 0.034984834 0.020650074 0.0028893913 -0.037500378 0.0443815 0.004387362 0.032608207
-0.013859937 -0.030817853 0.003577252 -0.043574158 0.0069216834 0.013658235 -0.02739469 0.007882178
-0.016204767 -0.013082719 0.009987543 -0.0071447073 0.01657963 -0.03734623 -0.010256873 -0.029209169
-0.031648383 0.0048463326 -0.045132622 -0.006442296 -0.027036374 0.019947147 0.028278457 0.016889518
-0.024150262 0.050012473 0.001575435 -0.011637708 -0.09355232 0.00879607 -0.04354379 0.0012856666
0.018374814 -0.018808924 0.023750886 -0.010555384 0.061905652 0.067039944 0.009164723 0.003699721
-0.054011777 -0.037803177 0.030130053 -0.026483526 0.0024888876 -0.0002888012 -0.063803434 0.009869029
0.06718793 -0.006152867 -0.04217217 -0.007491902 0.01377633 0.007594531 -0.006715818 0.029217469
-0.018444713 -0.0058154287 -0.018786186 0.037650995 0.034933336 0.0059344536 0.014841999 -0.043048095
0.013317817 0.008404599 -0.06704433 0.005778872 0.032621954 0.022436088 -0.028744772 2.3486739e-33
-0.070506535 -0.013771278 -0.031815305 0.02591666 0.009483152 0.006118135 0.03366826 0.027392855
0.0068215034 0.028873611 -0.022197701 -0.01121086 0.016971106 0.017505487 0.04080955 0.014233023
0.05374944 -0.006319296 -0.046358112 0.0030734525 -0.026476463 0.011935208 -0.0016290324 -0.0071324618
-0.024580184 0.027657231 0.04641482 0.058332052 -0.01376875 0.003992772 0.050730135 -0.03929113
00000000: f532 84bd 1d03 393c f717 67bc 5b35 3e3c
00000010: 3881 cb3b 84c4 b7bc 4c24 783d 38b4 a13c
00000020: 3cb5 223c cb26 ec3c 9f65 863b 17bb 62bd
00000030: 4887 8ebb cdfb 74bc 19c7 2bbb 9c64 1d3b
00000040: 29b1 3cbd 68ea 883b 62f7 9cbd d01c cbbc
00000050: 0579 84bd d561 8ebb 2c1f b1bc f494 db3c
00000060: f5c3 02bc d7a1 8dbb 18cc bdbc 482a f73c
00000070: 5b61 153d 3f68 71bd 3298 5f3c 1d8c 213c
00000080: e4dd 033d 02d7 563c fe53 b7bb bb25 e5bc
00000090: dabe 1cbc 915a 8d3c 1aa9 35bc d8b6 f6bc
000000a0: 61a3 01bc 7445 92bd 83a5 40bb 14be 693c
000000b0: 5d54 1b3c 9327 8e3c 0267 7e3c fddc 2a3c
000000c0: 690f b63c 40a9 483d 8fc9 bbbb 4981 bebc
000000d0: 29f6 143c 8992 d0bb 7f26 923b 5cac 54bc
000000e0: a146 443b 9c2d 0a3c a640 a2bb c4fb a8bc
000000f0: 62a9 1b3d a9ed 3fbc 0bec 9fbd 9b75 413d
00000100: b45e a9bc d0e4 8cbb e629 61bc 646b 153d
00000110: a8f8 bb39 c89a a9bc 72ed 26bd 7683 c73c
00000120: 4fa3 bfbc 7ed7 63bc 72ac 563d 99b0 9dba
00000130: 124d d23c 7eac 6dbc 316b 263d 622b ae3c
00000140: 4d9e 30bb 5eee 7a3b c8c1 eabc 7d82 8f3c
00000150: f910 913c 4223 aeba 63fc 103d af8b d23b
00000160: 7ed4 fcbc 615e 643c b657 04bc 8bde bb3c
00000170: e2d8 6a3d 1a8e 4d3c dc70 55bd eded 1ebb
00000180: 6681 943c 529c 333c cca9 f3bc cf3e 803e
00000190: f3be 693c b91e 053d 4796 b43c f2ee 753c
000001a0: 92ef 83bb dd25 12bc 4ba2 a7bc e57e 213d
000001b0: a290 caba 9fe7 3ebc 2223 d1bc fe4f 603c
000001c0: f928 1abb a6fe 623c 10fa c63c eafb a43c
000001d0: df88 87bc f4a7 bf3c b236 c93c 7648 31bb
000001e0: 4c98 983c 33b1 873c 58a9 61bb 036d b3ba
000001f0: 7c90 02bd adb1 9cbd 7cff c2ba 598b 8589
00000200: b23d 1d3d 9150 b53c 48f7 a53b 1a2d ad3c
00000210: 01eb d0bb 846f 243d 0db9 06bc 6484 ae3b
00000220: 81c7 3fbd f3cf 823d 7b96 4fbb 1bab 283d
00000230: 3d1c a2bc 377c b73b b137 a63d 9959 11bc
00000240: 4068 863b 424c 0f3d 582a a93c f15b 3d3b
00000250: ff99 19bd 60c9 353d dcc3 8f3b 2f90 053d
00000260: ca14 63bc b975 fcbc 5470 6a3b d17a 32bd
00000270: 4acf e23b cac6 5f3c d46a e0bc 4024 013c
00000280: dcbf 84bc e758 56bc cba2 233c 261e eabb
00000290: 01d2 873c 5cf8 18bd 720c 28bc 1148 efbc
000002a0: bca1 01bd fccd 9e3b fcdc 38bd e519 d3bb
000002b0: 637b ddbc 3368 a33c 39a8 e73c e35b 8a3c
000002c0: c5d6 c5bc e1d9 4c3d d47e ce3a 16ac 3ebc
000002d0: 5c98 bfbd 641d 103c f95a 32bd d083 a83a
000002e0: c786 963c 2c15 9abc 3891 c23c 7df0 2cbc
000002f0: c890 7d3d 3d4c 893d a227 163c 0577 723b
00000300: 743b 5dbd 81d7 1abd 4dd3 f63c fbf3 d8bc
00000310: 9b1c 233b 3e6a 97b9 60ab 82bd b5b1 213c
00000320: d399 893d fd9d c9bb babc 2cbd a17e f5bb
00000330: 1eb6 613c 8bdb f83b 5d10 dcbb 7959 ef3c
00000340: 5e19 97bc 5a8f bebb 7de5 99bc ee37 1a3d
00000350: 4216 0f3d ce75 c23b db2b 733c 3353 30bd
00000360: f932 5a3c 71b3 093c 8a4e 89bd b15c bd3b
00000370: 999e 053d e3cb b73c 287a ebbc c51e 4309
00000380: bb65 90bd eda0 61bc c450 02bd 2d4f d43c
00000390: 395f 1b3c a37a c83b bbe7 093d fb66 e03c
000003a0: eb86 df3b 5a88 ec3c f4d7 b5bc c1ad 37bc
000003b0: fd06 8b3c ab67 8f3c ea27 273d a031 693c
000003c0: 5f28 5c3d 1912 cfbb 01e2 3dbd fa6b 493b
000003d0: 2be5 d8bc e48b 433c 4285 d5ba 6db7 e9bb
000003e0: 625c c9bc 6b91 e23c 771d 3e3d 97ed 6e3d
000003f0: 5396 61bc cdd5 823b 67ca 4f3d bcef 20bd
