Analyze_files/CombiningAnalysisCompleteDataset/ContentAnalysis/ModelsContent/topic_model_all-MiniLM-L6-v2_150_150n_10dim_white_nation_safetensors/topic_embeddings.safetensors (safetensors, 49240 bytes, 1 tensors)

topic_embeddings f4 [32, 384]
00000000: d565 b8bc 2e33 083d b256 9ebc 12e8 af3c
00000010: f351 8d3b d47b febb 89cc 8a3d e7b5 153c
00000020: fe83 093c 3683 c43b 30f5 5f3c 0314 4fbd
00000030: 67ec a0bb 0ca6 b53a 5378 cfbb b49a d83b
00000040: 9fd1 8ebc 5e2b 6bbc 7be9 92bd b74c d2bc
00000050: 2fa7 78bd 4944 a63c 449d 18bc ed4d 0a3d
00000060: 6ced 25bd ad6f b7bb 47e0 abbc 4c84 8e3c
00000070: dd37 1f3d a7ef 52bd 1ed5 5fbc fe1f 15bb
00000080: d3e5 173d 5068 5fbb 4abd 183c 4bb1 d93b
00000090: 6a52 943c e3fa 81bc d490 2c3d 950f 3fbc
000000a0: 19d6 36bb 7559 8cbd e3e7 3cbc e2f4 4b3b
000000b0: 40bb c93c e43d 10bc 5eb1 db3c ab0b 54bb
000000c0: 7276 073d 1522 7b3c ac72 36bc 3cff 42bb
000000d0: 1670 c2bc 2f76 eabb f136 c83c f4f8 27bb
000000e0: 1422 c43b 97f0 113b 6526 933c d9a2 68bc
000000f0: 06aa 313d fcaf 09bc c172 9ebd b312 6d3d
00000100: fd09 c8bb 0230 013b 0554 18bc 1b93 f23b
00000110: 8bf7 8ebc 37e3 d7bc 3adf c23c 4b06 3f3b
00000120: 2a8c 3a3c 10e8 3b3c 850c 083d 6e8c 6dbc
00000130: e652 d73c 4ddf b4bb b846 213d 1480 16bb
00000140: 115d 933d 0347 8a3c d72f 46bd 8794 5ebc
00000150: 6632 003c e45d 73bb 002c 973c 4f9d 64bc
00000160: 169c 90bc a5c4 1c3d 3ee2 c2bc 6e43 b23b
00000170: 1652 053d b585 9c3c 9cf1 9abd 32d9 633b
00000180: b9e0 f53b 529f de3c 8d39 25bd 543e 823e
00000190: c91c d33b 8bac b93c 0124 2e3c b615 9ebb
000001a0: 88f0 0dbc f560 80bc d8af 3dbd 3af2 2f3d
000001b0: 10ba 4fbc 5b61 643a 45e1 f3bc 9640 67bc
000001c0: da39 913c 724b c43c c593 343d e503 9abb
000001d0: cc04 9ebc 6f77 163c 17a0 fa3c 472d e8bc
000001e0: dfae 943c 53c6 9f3c 5acd 0ebd 2374 7c3c
000001f0: a5cd d9bc a260 b0bd 98cf fabb 368f c589
00000200: 1eaa 133d afd2 b6bc 2cda ca3c a2e9 ed3b
00000210: 5db5 efbc cacd 263d cbb9 8c3c 1d00 8ebc
00000220: f5f6 2ebd a05d 1a3d 3c70 67bc 8beb 8c3c
00000230: 644d f8bc b746 af3b 94d0 be3d fce7 bb3c
00000240: 608e 3fbc 05c5 233d 852e 9abd 131a 72bc
00000250: 9daf 09bd b11c 8c3d 273e 8e3b cd1a 653d
00000260: 6018 26bd 1657 2fbd e30b 4cbc 3b18 37bd
00000270: 7784 9d3a 635b a23c 0d74 f3bc 22ab 0f3d
00000280: 52d8 66bc ecda 1cbc 1c92 003c 4e13 06bd
00000290: decf d43c 1c1d 35bd 88d9 49bc 0de4 8bbc
000002a0: 15f2 17bc 2e79 1f3c fbb5 fdbc e1d9 9e3c
000002b0: 7dda 233c b0b2 103d 9c02 023d 49c2 053d
000002c0: 1e28 b2bc ab8b 6f3c eedb c3bb f4ff e2bc
000002d0: b687 4fbd 3d57 803c 000f eabb bbb6 01bc
000002e0: 866b c23b 0b5a f0bc 07ca 803d 07a7 c6bb
000002f0: 29d5 ac3c dacf 993d 2adf 11bd 5536 553d
00000300: 7c32 02bd f2db 13bd e446 ab3a b017 3bbc
00000310: e30c b43c c179 ffbb fc5a 68bd ab4f 213c
00000320: a2ed 403d c118 123d 93c7 f73b c402 68bc
00000330: 19db 3a3c f62f ef3a 691a 6ebc eba1 9d3c
00000340: 8120 f3bc f7b6 36bc 51ed babb e09c f73c
00000350: daab c23c f901 803c 5786 7dbc f6bb 82bd
00000360: 736d 003d 3f05 9e3c c0c3 7fbd 8aed 5a3c
00000370: 45b2 0b3d 778d c53c fb37 9ebc 2afc 9109
00000380: 576f 3abd 29c7 d63c 7d8e 85bb 94d0 5e3d
00000390: e338 5a3b ea52 5ab9 9d56 533d b93c a33c
000003a0: 87a3 20bb 8614 9b3c b313 08bd 7dc3 16bd
000003b0: e19a 003d c959 ed3c 2f15 c63c 968d b33c
000003c0: 3554 993d 0147 32bd 68a4 11bd f4a3 72bc
000003d0: 2bc7 52bd a5bd 96bc f270 ac3b 1dce 9ebb
000003e0: d7c3 13bd f004 223d 4326 7c3d 8e5c 013d
000003f0: 53c0 95bc f25d 92bc 7a36 3e3d 65f6 adbc
-0.022509495 0.033251934 -0.019328449 0.021472964 0.0043127476 -0.0077662263 0.06777293 0.009137607
0.008393286 0.005997087 0.013669297 -0.050556194 -0.004910994 0.001385869 -0.0063314824 0.006610239
-0.01743394 -0.014353601 -0.07173439 -0.025671346 -0.060706314 0.020296233 -0.009314839 0.033765722
-0.040509626 -0.0055980296 -0.020980967 0.017397068 0.038871635 -0.05149808 -0.013661651 -0.0022754665
0.03708441 -0.0034089275 0.009322474 0.0066434494 0.018105704 -0.015866702 0.042130306 -0.01166143
-0.0027898608 -0.06853 -0.0115298955 0.0031121303 0.02462542 -0.008803818 0.026817974 -0.0032355587
0.033071943 0.01532795 -0.011135738 -0.0029754182 -0.023735087 -0.007155202 0.02444026 -0.0025630565
0.0059855077 0.0022268647 0.017962644 -0.014198982 0.043375038 -0.008403774 -0.07736731 0.05787916
-0.0061047063 0.0019712453 -0.009297376 0.0074027902 -0.017452022 -0.026353462 0.023788083 0.0029148038
0.011385957 0.011468902 0.033215065 -0.014498813 0.026284646 -0.0055197836 0.039374083 -0.0022964524
0.071954854 0.016879564 -0.048385467 -0.013585216 0.007824516 -0.003713482 0.018453598 -0.013953521
-0.017652553 0.038273472 -0.023789521 0.005440167 0.032548986 0.019106725 -0.075656146 0.003476691
0.0075035957 0.02717558 -0.040338088 0.25438178 0.0064426404 0.022665283 0.010628701 -0.0048243655
-0.008663304 -0.015671233 -0.046310276 0.042955615 -0.012678638 0.0008712017 -0.029770503 -0.01411452
0.017727781 0.023961756 0.044086237 -0.0047001713 -0.019289397 0.009183749 0.030593915 -0.028341902
0.018149791 0.019503748 -0.034863807 0.0154085485 -0.026587317 -0.08612181 -0.0076541416 -4.75607e-33
0.03605091 -0.022317259 0.024762236 0.007260517 -0.029261285 0.0407236 0.017178437 -0.017334038
-0.042715985 0.037686944 -0.01412588 0.01720216 -0.03031034 0.005349006 0.09317127 0.022937767
-0.01169166 0.039982814 -0.07528404 -0.014776724 -0.033614744 0.0684141 0.004340905 0.055933762
-0.04055059 -0.04280766 -0.012454006 -0.044700842 0.0012017627 0.019818967 -0.029718423 0.035075314
-0.014089661 -0.009573679 0.007847335 -0.032733254 0.025978025 -0.044217214 -0.01231993 -0.017076517
-0.009274025 0.009733481 -0.030970564 0.019391002 0.010000822 0.03532666 0.03174077 0.032655988
-0.021747645 0.014620702 -0.0059771454 -0.027709939 -0.050666533 0.015666598 -0.0071429014 -0.0079171015
0.005933228 -0.02933981 0.06288534 -0.0060623917 0.021097736 0.07510348 -0.035613216 0.05205377
-0.031786427 -0.036098428 0.0013067392 -0.011419222 0.021978801 -0.0077964966 -0.056727394 0.0098456545
0.047101624 0.03566814 0.007561633 -0.014160816 0.011404776 0.0018248546 -0.014532664 0.019242248
-0.029678585 -0.011152021 -0.00570456 0.030226171 0.023763586 0.01562594 -0.015473924 -0.06383507
0.03135438 0.01928961 -0.06244254 0.013362298 0.034105558 0.024115307 -0.019313803 3.5144614e-33
-0.04551634 0.026218014 -0.004075824 0.054398134 0.0033298067 -0.00020820988 0.051596273 0.019926416
-0.0024511532 0.018930685 -0.03322191 -0.036807526 0.031397704 0.028973477 0.024180023 0.0219181
0.07486764 -0.043524746 -0.03555718 -0.014809597 -0.051459473 -0.018400976 0.0052624876 -0.004846348
-0.03607544 0.03955549 0.061559927 0.031582408 -0.018280184 -0.017867062 0.04643867 -0.021235654
